…
  0%|          | 0/1157 [00:00<?, ?it/s]
[A
 46%|####5     | 529/1157 [00:00<00:00, 5289.01it/s]
[A
 91%|#########1| 1058/1157 [00:00<00:00, 4959.41it/s]
[A
100%|##########| 1157/1157 [00:00<00:00, 5212.79it/s]
Number of tasks = 1

Fold 0

Splitting data with seed 0

Class sizes

Label 0: 46.33%, 1: 53.67%

Total size = 1,157 | train size = 925 | val size = 116 | test size = 116

Building model 0

MoleculeModel(
  (sigmoid): Sigmoid()
  (encoder): MPN(
    (encoder): ModuleList(
      (0): MPNEncoder(
        (dropout_layer): Dropout(p=0.4, inplace=False)
        (act_func): ReLU()
        (W_i): Linear(in_features=147, out_features=1300, bias=False)
        (W_h): Linear(in_features=1300, out_features=1300, bias=False)
        (W_o): Linear(in_features=1433, out_features=1300, bias=True)
      )
    )
  )
  (ffn): Sequential(
    (0): Dropout(p=0.4, inplace=False)
    (1): Linear(in_features=1300, out_features=1300, bias=True)
    (2): ReLU()
    (3): Dropout(p=0.4, inplace=False)
    (4): Linear(in_features=1300, out_features=1, bias=True)
  )
)

Number of parameters = 5,439,201

Moving model to cuda

  0%|          | 0/100 [00:00<?, ?it/s]
[A
Epoch 0

  0%|          | 0/19 [00:00<?, ?it/s]
[A[A
  5%|5         | 1/19 [00:06<01:53,  6.32s/it]
[A[A
 11%|#         | 2/19 [00:06<00:45,  2.68s/it]
[A[A
 21%|##1       | 4/19 [00:06<00:15,  1.05s/it]
[A[A
 32%|###1      | 6/19 [00:06<00:07,  1.68it/s]
…
1157it [00:00, 116363.17it/s]
  0%|          | 0/1157 [00:00<?, ?it/s]
[A
100%|##########| 1157/1157 [00:00<00:00, 172446.24it/s]
  0%|          | 0/1157 [00:00<?, ?it/s]
[A
100%|##########| 1157/1157 [00:00<00:00, 80516.50it/s]
Number of tasks = 1

Fold 0

Splitting data with seed 0

Class sizes

Label 0: 46.33%, 1: 53.67%

Total size = 1,157 | train size = 925 | val size = 116 | test size = 116

Building model 0

MoleculeModel(
  (sigmoid): Sigmoid()
  (encoder): MPN(
    (encoder): ModuleList(
      (0): MPNEncoder(
        (dropout_layer): Dropout(p=0.4, inplace=False)
        (act_func): ReLU()
        (W_i): Linear(in_features=147, out_features=800, bias=False)
        (W_h): Linear(in_features=800, out_features=800, bias=False)
        (W_o): Linear(in_features=933, out_features=800, bias=True)
      )
    )
  )
  (ffn): Sequential(
    (0): Dropout(p=0.4, inplace=False)
    (1): Linear(in_features=800, out_features=800, bias=True)
    (2): ReLU()
    (3): Dropout(p=0.4, inplace=False)
    (4): Linear(in_features=800, out_features=1, bias=True)
  )
)

Number of parameters = 2,147,201

Moving model to cuda

  0%|          | 0/100 [00:00<?, ?it/s]
[A
Epoch 0

  0%|          | 0/19 [00:00<?, ?it/s]
[A[A
 21%|##1       | 4/19 [00:00<00:00, 34.27it/s]
[A[A
 42%|####2     | 8/19 [00:00<00:00, 34.75it/s]
[A[A
Loss = 7.2956e-01, PNorm = 52.0865, GNorm = 1.3014, lr_0 = 3.7500e-04

 63%|######3   | 12/19 [00:00<00:00, 34.78it/s]
…
1157it [00:00, 248073.29it/s]
  0%|          | 0/1157 [00:00<?, ?it/s]
[A
100%|##########| 1157/1157 [00:00<00:00, 361960.90it/s]
  0%|          | 0/1157 [00:00<?, ?it/s]
[A
100%|##########| 1157/1157 [00:00<00:00, 134229.79it/s]
Number of tasks = 1

Fold 0

Splitting data with seed 0

Class sizes

Label 0: 46.33%, 1: 53.67%

Total size = 1,157 | train size = 925 | val size = 116 | test size = 116

Building model 0

MoleculeModel(
  (sigmoid): Sigmoid()
  (encoder): MPN(
    (encoder): ModuleList(
      (0): MPNEncoder(
        (dropout_layer): Dropout(p=0.25, inplace=False)
        (act_func): ReLU()
        (W_i): Linear(in_features=147, out_features=1400, bias=False)
        (W_h): Linear(in_features=1400, out_features=1400, bias=False)
        (W_o): Linear(in_features=1533, out_features=1400, bias=True)
      )
    )
  )
  (ffn): Sequential(
    (0): Dropout(p=0.25, inplace=False)
    (1): Linear(in_features=1400, out_features=1400, bias=True)
    (2): ReLU()
    (3): Dropout(p=0.25, inplace=False)
    (4): Linear(in_features=1400, out_features=1, bias=True)
  )
)

Number of parameters = 6,277,601

Moving model to cuda

  0%|          | 0/100 [00:00<?, ?it/s]
[A
Epoch 0

  0%|          | 0/19 [00:00<?, ?it/s]
[A[A
 21%|##1       | 4/19 [00:00<00:00, 32.11it/s]
[A[A
 42%|####2     | 8/19 [00:00<00:00, 32.62it/s]
[A[A
Loss = 7.1785e-01, PNorm = 67.3324, GNorm = 0.7832, lr_0 = 3.7500e-04

 63%|######3   | 12/19 [00:00<00:00, 32.56it/s]
…
  0%|          | 0/1157 [00:00<?, ?it/s]
[A
100%|##########| 1157/1157 [00:00<00:00, 337962.93it/s]
  0%|          | 0/1157 [00:00<?, ?it/s]
[A
100%|##########| 1157/1157 [00:00<00:00, 133889.08it/s]
Number of tasks = 1

Fold 0

Splitting data with seed 0

Class sizes

Label 0: 46.33%, 1: 53.67%

Total size = 1,157 | train size = 925 | val size = 116 | test size = 116

Building model 0

MoleculeModel(
  (sigmoid): Sigmoid()
  (encoder): MPN(
    (encoder): ModuleList(
      (0): MPNEncoder(
        (dropout_layer): Dropout(p=0.35000000000000003, inplace=False)
        (act_func): ReLU()
        (W_i): Linear(in_features=147, out_features=1000, bias=False)
        (W_h): Linear(in_features=1000, out_features=1000, bias=False)
        (W_o): Linear(in_features=1133, out_features=1000, bias=True)
      )
    )
  )
  (ffn): Sequential(
    (0): Dropout(p=0.35000000000000003, inplace=False)
    (1): Linear(in_features=1000, out_features=1000, bias=True)
    (2): ReLU()
    (3): Dropout(p=0.35000000000000003, inplace=False)
    (4): Linear(in_features=1000, out_features=1, bias=True)
  )
)

Number of parameters = 3,284,001

Moving model to cuda

  0%|          | 0/100 [00:00<?, ?it/s]
[A
Epoch 0

  0%|          | 0/19 [00:00<?, ?it/s]
[A[A
 11%|#         | 2/19 [00:00<00:01,  8.80it/s]
[A[A
 32%|###1      | 6/19 [00:00<00:00, 18.86it/s]
[A[A
Loss = 7.2701e-01, PNorm = 57.6365, GNorm = 1.1828, lr_0 = 3.7500e-04

 53%|#####2    | 10/19 [00:00<00:00, 23.54it/s]
…
  0%|          | 0/1157 [00:00<?, ?it/s]
[A
100%|##########| 1157/1157 [00:00<00:00, 186145.37it/s]
  0%|          | 0/1157 [00:00<?, ?it/s]
[A
100%|##########| 1157/1157 [00:00<00:00, 84197.55it/s]
Number of tasks = 1

Fold 0

Splitting data with seed 0

Class sizes

Label 0: 46.33%, 1: 53.67%

Total size = 1,157 | train size = 925 | val size = 116 | test size = 116

Building model 0

MoleculeModel(
  (sigmoid): Sigmoid()
  (encoder): MPN(
    (encoder): ModuleList(
      (0): MPNEncoder(
        (dropout_layer): Dropout(p=0.15000000000000002, inplace=False)
        (act_func): ReLU()
        (W_i): Linear(in_features=147, out_features=900, bias=False)
        (W_h): Linear(in_features=900, out_features=900, bias=False)
        (W_o): Linear(in_features=1033, out_features=900, bias=True)
      )
    )
  )
  (ffn): Sequential(
    (0): Dropout(p=0.15000000000000002, inplace=False)
    (1): Linear(in_features=900, out_features=900, bias=True)
    (2): ReLU()
    (3): Dropout(p=0.15000000000000002, inplace=False)
    (4): Linear(in_features=900, out_features=1, bias=True)
  )
)

Number of parameters = 2,685,601

Moving model to cuda

  0%|          | 0/100 [00:00<?, ?it/s]
[A
Epoch 0

  0%|          | 0/19 [00:00<?, ?it/s]
[A[A
 16%|#5        | 3/19 [00:00<00:00, 29.78it/s]
[A[A
 32%|###1      | 6/19 [00:00<00:00, 29.89it/s]
[A[A
 47%|####7     | 9/19 [00:00<00:00, 29.91it/s]
[A[A
Loss = 7.0907e-01, PNorm = 54.9584, GNorm = 0.5170, lr_0 = 3.7500e-04
…
  0%|          | 0/1157 [00:00<?, ?it/s]
[A
100%|##########| 1157/1157 [00:00<00:00, 151565.05it/s]
  0%|          | 0/1157 [00:00<?, ?it/s]
[A
100%|##########| 1157/1157 [00:00<00:00, 67501.39it/s]
Number of tasks = 1

Fold 0

Splitting data with seed 0

Class sizes

Label 0: 46.33%, 1: 53.67%

Total size = 1,157 | train size = 925 | val size = 116 | test size = 116

Building model 0

MoleculeModel(
  (sigmoid): Sigmoid()
  (encoder): MPN(
    (encoder): ModuleList(
      (0): MPNEncoder(
        (dropout_layer): Dropout(p=0.30000000000000004, inplace=False)
        (act_func): ReLU()
        (W_i): Linear(in_features=147, out_features=1100, bias=False)
        (W_h): Linear(in_features=1100, out_features=1100, bias=False)
        (W_o): Linear(in_features=1233, out_features=1100, bias=True)
      )
    )
  )
  (ffn): Sequential(
    (0): Dropout(p=0.30000000000000004, inplace=False)
    (1): Linear(in_features=1100, out_features=1100, bias=True)
    (2): ReLU()
    (3): Dropout(p=0.30000000000000004, inplace=False)
    (4): Linear(in_features=1100, out_features=1, bias=True)
  )
)

Number of parameters = 3,942,401

Moving model to cuda

  0%|          | 0/100 [00:00<?, ?it/s]
[A
Epoch 0

  0%|          | 0/19 [00:00<?, ?it/s]
[A[A
 21%|##1       | 4/19 [00:00<00:00, 30.21it/s]
[A[A
 42%|####2     | 8/19 [00:00<00:00, 30.28it/s]
[A[A
Loss = 7.1659e-01, PNorm = 60.2241, GNorm = 0.8566, lr_0 = 3.7500e-04

 63%|######3   | 12/19 [00:00<00:00, 30.42it/s]
…
  0%|          | 0/1157 [00:00<?, ?it/s]
[A
100%|##########| 1157/1157 [00:00<00:00, 186589.12it/s]
  0%|          | 0/1157 [00:00<?, ?it/s]
[A
100%|##########| 1157/1157 [00:00<00:00, 81431.18it/s]
Number of tasks = 1

Fold 0

Splitting data with seed 0

Class sizes

Label 0: 46.33%, 1: 53.67%

Total size = 1,157 | train size = 925 | val size = 116 | test size = 116

Building model 0

MoleculeModel(
  (sigmoid): Sigmoid()
  (encoder): MPN(
    (encoder): ModuleList(
      (0): MPNEncoder(
        (dropout_layer): Dropout(p=0.15000000000000002, inplace=False)
        (act_func): ReLU()
        (W_i): Linear(in_features=147, out_features=400, bias=False)
        (W_h): Linear(in_features=400, out_features=400, bias=False)
        (W_o): Linear(in_features=533, out_features=400, bias=True)
      )
    )
  )
  (ffn): Sequential(
    (0): Dropout(p=0.15000000000000002, inplace=False)
    (1): Linear(in_features=400, out_features=400, bias=True)
    (2): ReLU()
    (3): Dropout(p=0.15000000000000002, inplace=False)
    (4): Linear(in_features=400, out_features=1, bias=True)
  )
)

Number of parameters = 593,601

Moving model to cuda

  0%|          | 0/100 [00:00<?, ?it/s]
[A
Epoch 0

  0%|          | 0/19 [00:00<?, ?it/s]
[A[A
 21%|##1       | 4/19 [00:00<00:00, 31.03it/s]
[A[A
 42%|####2     | 8/19 [00:00<00:00, 31.40it/s]
[A[A
Loss = 6.9666e-01, PNorm = 38.3716, GNorm = 0.5743, lr_0 = 3.7500e-04

 63%|######3   | 12/19 [00:00<00:00, 31.59it/s]
…
1157it [00:00, 125036.97it/s]
  0%|          | 0/1157 [00:00<?, ?it/s]
[A
100%|##########| 1157/1157 [00:00<00:00, 187374.41it/s]
  0%|          | 0/1157 [00:00<?, ?it/s]
[A
100%|##########| 1157/1157 [00:00<00:00, 83123.10it/s]
Number of tasks = 1

Fold 0

Splitting data with seed 0

Class sizes

Label 0: 46.33%, 1: 53.67%

Total size = 1,157 | train size = 925 | val size = 116 | test size = 116

Building model 0

MoleculeModel(
  (sigmoid): Sigmoid()
  (encoder): MPN(
    (encoder): ModuleList(
      (0): MPNEncoder(
        (dropout_layer): Dropout(p=0.05, inplace=False)
        (act_func): ReLU()
        (W_i): Linear(in_features=147, out_features=2000, bias=False)
        (W_h): Linear(in_features=2000, out_features=2000, bias=False)
        (W_o): Linear(in_features=2133, out_features=2000, bias=True)
      )
    )
  )
  (ffn): Sequential(
    (0): Dropout(p=0.05, inplace=False)
    (1): Linear(in_features=2000, out_features=2000, bias=True)
    (2): ReLU()
    (3): Dropout(p=0.05, inplace=False)
    (4): Linear(in_features=2000, out_features=1, bias=True)
  )
)

Number of parameters = 12,568,001

Moving model to cuda

  0%|          | 0/100 [00:00<?, ?it/s]
[A
Epoch 0

  0%|          | 0/19 [00:00<?, ?it/s]
[A[A
 16%|#5        | 3/19 [00:00<00:00, 23.57it/s]
[A[A
 32%|###1      | 6/19 [00:00<00:00, 23.50it/s]
[A[A
 47%|####7     | 9/19 [00:00<00:00, 23.64it/s]
[A[A
Loss = 7.5680e-01, PNorm = 79.6386, GNorm = 0.3009, lr_0 = 3.7500e-04
…
  0%|          | 0/1157 [00:00<?, ?it/s]
[A
100%|##########| 1157/1157 [00:00<00:00, 174611.75it/s]
  0%|          | 0/1157 [00:00<?, ?it/s]
[A
100%|##########| 1157/1157 [00:00<00:00, 80582.01it/s]
Number of tasks = 1

Fold 0

Splitting data with seed 0

Class sizes

Label 0: 46.33%, 1: 53.67%

Total size = 1,157 | train size = 925 | val size = 116 | test size = 116

Building model 0

MoleculeModel(
  (sigmoid): Sigmoid()
  (encoder): MPN(
    (encoder): ModuleList(
      (0): MPNEncoder(
        (dropout_layer): Dropout(p=0.30000000000000004, inplace=False)
        (act_func): ReLU()
        (W_i): Linear(in_features=147, out_features=1900, bias=False)
        (W_h): Linear(in_features=1900, out_features=1900, bias=False)
        (W_o): Linear(in_features=2033, out_features=1900, bias=True)
      )
    )
  )
  (ffn): Sequential(
    (0): Dropout(p=0.30000000000000004, inplace=False)
    (1): Linear(in_features=1900, out_features=1900, bias=True)
    (2): ReLU()
    (3): Dropout(p=0.30000000000000004, inplace=False)
    (4): Linear(in_features=1900, out_features=1, bias=True)
  )
)

Number of parameters = 11,369,601

Moving model to cuda

  0%|          | 0/100 [00:00<?, ?it/s]
[A
Epoch 0

  0%|          | 0/19 [00:00<?, ?it/s]
[A[A
 16%|#5        | 3/19 [00:00<00:00, 22.64it/s]
[A[A
 32%|###1      | 6/19 [00:00<00:00, 22.70it/s]
[A[A
 47%|####7     | 9/19 [00:00<00:00, 22.46it/s]
[A[A
Loss = 7.8134e-01, PNorm = 77.7408, GNorm = 0.6834, lr_0 = 3.7500e-04
…
1157it [00:00, 247264.33it/s]
  0%|          | 0/1157 [00:00<?, ?it/s]
[A
100%|##########| 1157/1157 [00:00<00:00, 349676.45it/s]
  0%|          | 0/1157 [00:00<?, ?it/s]
[A
100%|##########| 1157/1157 [00:00<00:00, 134352.43it/s]
Number of tasks = 1

Fold 0

Splitting data with seed 0

Class sizes

Label 0: 46.33%, 1: 53.67%

Total size = 1,157 | train size = 925 | val size = 116 | test size = 116

Building model 0

MoleculeModel(
  (sigmoid): Sigmoid()
  (encoder): MPN(
    (encoder): ModuleList(
      (0): MPNEncoder(
        (dropout_layer): Dropout(p=0.4, inplace=False)
        (act_func): ReLU()
        (W_i): Linear(in_features=147, out_features=1700, bias=False)
        (W_h): Linear(in_features=1700, out_features=1700, bias=False)
        (W_o): Linear(in_features=1833, out_features=1700, bias=True)
      )
    )
  )
  (ffn): Sequential(
    (0): Dropout(p=0.4, inplace=False)
    (1): Linear(in_features=1700, out_features=1700, bias=True)
    (2): ReLU()
    (3): Dropout(p=0.4, inplace=False)
    (4): Linear(in_features=1700, out_features=1700, bias=True)
    (5): ReLU()
    (6): Dropout(p=0.4, inplace=False)
    (7): Linear(in_features=1700, out_features=1, bias=True)
  )
)

Number of parameters = 12,044,501

Moving model to cuda

  0%|          | 0/100 [00:00<?, ?it/s]
[A
Epoch 0

  0%|          | 0/19 [00:00<?, ?it/s]
[A[A
 16%|#5        | 3/19 [00:00<00:00, 21.85it/s]
[A[A
 32%|###1      | 6/19 [00:00<00:00, 21.75it/s]
[A[A
 47%|####7     | 9/19 [00:00<00:00, 21.62it/s]
[A[A
Loss = 7.6321e-01, PNorm = 84.4836, GNorm = 1.1393, lr_0 = 3.7500e-04
…
1157it [00:00, 118699.94it/s]
  0%|          | 0/1157 [00:00<?, ?it/s]
[A
100%|##########| 1157/1157 [00:00<00:00, 184188.32it/s]
  0%|          | 0/1157 [00:00<?, ?it/s]
[A
100%|##########| 1157/1157 [00:00<00:00, 80974.63it/s]
Number of tasks = 1

Fold 0

Splitting data with seed 0

Class sizes

Label 0: 46.33%, 1: 53.67%

Total size = 1,157 | train size = 925 | val size = 116 | test size = 116

Building model 0

MoleculeModel(
  (sigmoid): Sigmoid()
  (encoder): MPN(
    (encoder): ModuleList(
      (0): MPNEncoder(
        (dropout_layer): Dropout(p=0.2, inplace=False)
        (act_func): ReLU()
        (W_i): Linear(in_features=147, out_features=700, bias=False)
        (W_h): Linear(in_features=700, out_features=700, bias=False)
        (W_o): Linear(in_features=833, out_features=700, bias=True)
      )
    )
  )
  (ffn): Sequential(
    (0): Dropout(p=0.2, inplace=False)
    (1): Linear(in_features=700, out_features=700, bias=True)
    (2): ReLU()
    (3): Dropout(p=0.2, inplace=False)
    (4): Linear(in_features=700, out_features=700, bias=True)
    (5): ReLU()
    (6): Dropout(p=0.2, inplace=False)
    (7): Linear(in_features=700, out_features=1, bias=True)
  )
)

Number of parameters = 2,159,501

Moving model to cuda

  0%|          | 0/100 [00:00<?, ?it/s]
[A
Epoch 0

  0%|          | 0/19 [00:00<?, ?it/s]
[A[A
 16%|#5        | 3/19 [00:00<00:00, 28.45it/s]
[A[A
 32%|###1      | 6/19 [00:00<00:00, 28.65it/s]
[A[A
 47%|####7     | 9/19 [00:00<00:00, 28.53it/s]
[A[A
Loss = 7.1044e-01, PNorm = 55.7877, GNorm = 1.0212, lr_0 = 3.7500e-04
…
1157it [00:00, 117840.99it/s]
  0%|          | 0/1157 [00:00<?, ?it/s]
[A
100%|##########| 1157/1157 [00:00<00:00, 174706.04it/s]
  0%|          | 0/1157 [00:00<?, ?it/s]
[A
100%|##########| 1157/1157 [00:00<00:00, 79385.08it/s]
Number of tasks = 1

Fold 0

Splitting data with seed 0

Class sizes

Label 0: 46.33%, 1: 53.67%

Total size = 1,157 | train size = 925 | val size = 116 | test size = 116

Building model 0

MoleculeModel(
  (sigmoid): Sigmoid()
  (encoder): MPN(
    (encoder): ModuleList(
      (0): MPNEncoder(
        (dropout_layer): Dropout(p=0.2, inplace=False)
        (act_func): ReLU()
        (W_i): Linear(in_features=147, out_features=2300, bias=False)
        (W_h): Linear(in_features=2300, out_features=2300, bias=False)
        (W_o): Linear(in_features=2433, out_features=2300, bias=True)
      )
    )
  )
  (ffn): Sequential(
    (0): Dropout(p=0.2, inplace=False)
    (1): Linear(in_features=2300, out_features=2300, bias=True)
    (2): ReLU()
    (3): Dropout(p=0.2, inplace=False)
    (4): Linear(in_features=2300, out_features=2300, bias=True)
    (5): ReLU()
    (6): Dropout(p=0.2, inplace=False)
    (7): Linear(in_features=2300, out_features=1, bias=True)
  )
)

Number of parameters = 21,815,501

Moving model to cuda

  0%|          | 0/100 [00:00<?, ?it/s]
[A
Epoch 0

  0%|          | 0/19 [00:00<?, ?it/s]
[A[A
 16%|#5        | 3/19 [00:00<00:00, 28.55it/s]
[A[A
 32%|###1      | 6/19 [00:00<00:00, 28.58it/s]
[A[A
 47%|####7     | 9/19 [00:00<00:00, 28.55it/s]
[A[A
Loss = 7.2229e-01, PNorm = 97.7504, GNorm = 0.4918, lr_0 = 3.7500e-04
…
1157it [00:00, 118734.79it/s]
  0%|          | 0/1157 [00:00<?, ?it/s]
[A
100%|##########| 1157/1157 [00:00<00:00, 184981.69it/s]
  0%|          | 0/1157 [00:00<?, ?it/s]
[A
100%|##########| 1157/1157 [00:00<00:00, 81728.78it/s]
Number of tasks = 1

Fold 0

Splitting data with seed 0

Class sizes

Label 0: 46.33%, 1: 53.67%

Total size = 1,157 | train size = 925 | val size = 116 | test size = 116

Building model 0

MoleculeModel(
  (sigmoid): Sigmoid()
  (encoder): MPN(
    (encoder): ModuleList(
      (0): MPNEncoder(
        (dropout_layer): Dropout(p=0.25, inplace=False)
        (act_func): ReLU()
        (W_i): Linear(in_features=147, out_features=2200, bias=False)
        (W_h): Linear(in_features=2200, out_features=2200, bias=False)
        (W_o): Linear(in_features=2333, out_features=2200, bias=True)
      )
    )
  )
  (ffn): Sequential(
    (0): Dropout(p=0.25, inplace=False)
    (1): Linear(in_features=2200, out_features=2200, bias=True)
    (2): ReLU()
    (3): Dropout(p=0.25, inplace=False)
    (4): Linear(in_features=2200, out_features=2200, bias=True)
    (5): ReLU()
    (6): Dropout(p=0.25, inplace=False)
    (7): Linear(in_features=2200, out_features=1, bias=True)
  )
)

Number of parameters = 19,987,001

Moving model to cuda

  0%|          | 0/100 [00:00<?, ?it/s]
[A
Epoch 0

  0%|          | 0/19 [00:00<?, ?it/s]
[A[A
 16%|#5        | 3/19 [00:00<00:00, 27.99it/s]
[A[A
 32%|###1      | 6/19 [00:00<00:00, 27.79it/s]
[A[A
 47%|####7     | 9/19 [00:00<00:00, 27.96it/s]
[A[A
Loss = 7.2484e-01, PNorm = 95.6593, GNorm = 0.6383, lr_0 = 3.7500e-04
…
1157it [00:00, 119547.94it/s]
  0%|          | 0/1157 [00:00<?, ?it/s]
[A
100%|##########| 1157/1157 [00:00<00:00, 182101.01it/s]
  0%|          | 0/1157 [00:00<?, ?it/s]
[A
100%|##########| 1157/1157 [00:00<00:00, 81425.71it/s]
Number of tasks = 1

Fold 0

Splitting data with seed 0

Class sizes

Label 0: 46.33%, 1: 53.67%

Total size = 1,157 | train size = 925 | val size = 116 | test size = 116

Building model 0

MoleculeModel(
  (sigmoid): Sigmoid()
  (encoder): MPN(
    (encoder): ModuleList(
      (0): MPNEncoder(
        (dropout_layer): Dropout(p=0.2, inplace=False)
        (act_func): ReLU()
        (W_i): Linear(in_features=147, out_features=2400, bias=False)
        (W_h): Linear(in_features=2400, out_features=2400, bias=False)
        (W_o): Linear(in_features=2533, out_features=2400, bias=True)
      )
    )
  )
  (ffn): Sequential(
    (0): Dropout(p=0.2, inplace=False)
    (1): Linear(in_features=2400, out_features=2400, bias=True)
    (2): ReLU()
    (3): Dropout(p=0.2, inplace=False)
    (4): Linear(in_features=2400, out_features=2400, bias=True)
    (5): ReLU()
    (6): Dropout(p=0.2, inplace=False)
    (7): Linear(in_features=2400, out_features=1, bias=True)
  )
)

Number of parameters = 23,724,001

Moving model to cuda

  0%|          | 0/100 [00:00<?, ?it/s]
[A
Epoch 0

  0%|          | 0/19 [00:00<?, ?it/s]
[A[A
 16%|#5        | 3/19 [00:00<00:00, 21.76it/s]
[A[A
 32%|###1      | 6/19 [00:00<00:00, 21.43it/s]
[A[A
 47%|####7     | 9/19 [00:00<00:00, 21.26it/s]
[A[A
Loss = 7.5010e-01, PNorm = 99.7787, GNorm = 0.4030, lr_0 = 3.7500e-04
…
  0%|          | 0/1157 [00:00<?, ?it/s]
[A
100%|##########| 1157/1157 [00:00<00:00, 209136.78it/s]
  0%|          | 0/1157 [00:00<?, ?it/s]
[A
100%|##########| 1157/1157 [00:00<00:00, 130182.41it/s]
Number of tasks = 1

Fold 0

Splitting data with seed 0

Class sizes

Label 0: 46.33%, 1: 53.67%

Total size = 1,157 | train size = 925 | val size = 116 | test size = 116

Building model 0

MoleculeModel(
  (sigmoid): Sigmoid()
  (encoder): MPN(
    (encoder): ModuleList(
      (0): MPNEncoder(
        (dropout_layer): Dropout(p=0.15000000000000002, inplace=False)
        (act_func): ReLU()
        (W_i): Linear(in_features=147, out_features=1300, bias=False)
        (W_h): Linear(in_features=1300, out_features=1300, bias=False)
        (W_o): Linear(in_features=1433, out_features=1300, bias=True)
      )
    )
  )
  (ffn): Sequential(
    (0): Dropout(p=0.15000000000000002, inplace=False)
    (1): Linear(in_features=1300, out_features=1300, bias=True)
    (2): ReLU()
    (3): Dropout(p=0.15000000000000002, inplace=False)
    (4): Linear(in_features=1300, out_features=1300, bias=True)
    (5): ReLU()
    (6): Dropout(p=0.15000000000000002, inplace=False)
    (7): Linear(in_features=1300, out_features=1, bias=True)
  )
)

Number of parameters = 7,130,501

Moving model to cuda

  0%|          | 0/100 [00:00<?, ?it/s]
[A
Epoch 0

  0%|          | 0/19 [00:00<?, ?it/s]
[A[A
 16%|#5        | 3/19 [00:00<00:00, 27.70it/s]
[A[A
 32%|###1      | 6/19 [00:00<00:00, 27.70it/s]
[A[A
 47%|####7     | 9/19 [00:00<00:00, 27.23it/s]
[A[A
Loss = 7.1583e-01, PNorm = 74.3885, GNorm = 0.5062, lr_0 = 3.7500e-04
…
  0%|          | 0/1157 [00:00<?, ?it/s]
[A
100%|##########| 1157/1157 [00:00<00:00, 341530.70it/s]
  0%|          | 0/1157 [00:00<?, ?it/s]
[A
100%|##########| 1157/1157 [00:00<00:00, 133370.24it/s]
Number of tasks = 1

Fold 0

Splitting data with seed 0

Class sizes

Label 0: 46.33%, 1: 53.67%

Total size = 1,157 | train size = 925 | val size = 116 | test size = 116

Building model 0

MoleculeModel(
  (sigmoid): Sigmoid()
  (encoder): MPN(
    (encoder): ModuleList(
      (0): MPNEncoder(
        (dropout_layer): Dropout(p=0.30000000000000004, inplace=False)
        (act_func): ReLU()
        (W_i): Linear(in_features=147, out_features=1600, bias=False)
        (W_h): Linear(in_features=1600, out_features=1600, bias=False)
        (W_o): Linear(in_features=1733, out_features=1600, bias=True)
      )
    )
  )
  (ffn): Sequential(
    (0): Dropout(p=0.30000000000000004, inplace=False)
    (1): Linear(in_features=1600, out_features=1600, bias=True)
    (2): ReLU()
    (3): Dropout(p=0.30000000000000004, inplace=False)
    (4): Linear(in_features=1600, out_features=1600, bias=True)
    (5): ReLU()
    (6): Dropout(p=0.30000000000000004, inplace=False)
    (7): Linear(in_features=1600, out_features=1, bias=True)
  )
)

Number of parameters = 10,696,001

Moving model to cuda

  0%|          | 0/100 [00:00<?, ?it/s]
[A
Epoch 0

  0%|          | 0/19 [00:00<?, ?it/s]
[A[A
 16%|#5        | 3/19 [00:00<00:00, 23.74it/s]
[A[A
 32%|###1      | 6/19 [00:00<00:00, 23.56it/s]
[A[A
 47%|####7     | 9/19 [00:00<00:00, 14.96it/s]
[A[A
Loss = 7.3376e-01, PNorm = 82.0805, GNorm = 0.8618, lr_0 = 3.7500e-04
…
1157it [00:00, 251063.67it/s]
  0%|          | 0/1157 [00:00<?, ?it/s]
[A
100%|##########| 1157/1157 [00:00<00:00, 352419.01it/s]
  0%|          | 0/1157 [00:00<?, ?it/s]
[A
100%|##########| 1157/1157 [00:00<00:00, 132442.07it/s]
Number of tasks = 1

Fold 0

Splitting data with seed 0

Class sizes

Label 0: 46.33%, 1: 53.67%

Total size = 1,157 | train size = 925 | val size = 116 | test size = 116

Building model 0

MoleculeModel(
  (sigmoid): Sigmoid()
  (encoder): MPN(
    (encoder): ModuleList(
      (0): MPNEncoder(
        (dropout_layer): Dropout(p=0.4, inplace=False)
        (act_func): ReLU()
        (W_i): Linear(in_features=147, out_features=900, bias=False)
        (W_h): Linear(in_features=900, out_features=900, bias=False)
        (W_o): Linear(in_features=1033, out_features=900, bias=True)
      )
    )
  )
  (ffn): Sequential(
    (0): Dropout(p=0.4, inplace=False)
    (1): Linear(in_features=900, out_features=900, bias=True)
    (2): ReLU()
    (3): Dropout(p=0.4, inplace=False)
    (4): Linear(in_features=900, out_features=900, bias=True)
    (5): ReLU()
    (6): Dropout(p=0.4, inplace=False)
    (7): Linear(in_features=900, out_features=1, bias=True)
  )
)

Number of parameters = 3,496,501

Moving model to cuda

  0%|          | 0/100 [00:00<?, ?it/s]
[A
Epoch 0

  0%|          | 0/19 [00:00<?, ?it/s]
[A[A
 21%|##1       | 4/19 [00:00<00:00, 33.78it/s]
[A[A
 42%|####2     | 8/19 [00:00<00:00, 34.19it/s]
[A[A
Loss = 7.2010e-01, PNorm = 62.6077, GNorm = 1.4885, lr_0 = 3.7500e-04

 63%|######3   | 12/19 [00:00<00:00, 34.17it/s]
…
1157it [00:00, 250868.99it/s]
  0%|          | 0/1157 [00:00<?, ?it/s]
[A
100%|##########| 1157/1157 [00:00<00:00, 347597.57it/s]
  0%|          | 0/1157 [00:00<?, ?it/s]
[A
100%|##########| 1157/1157 [00:00<00:00, 132355.37it/s]
Number of tasks = 1

Fold 0

Splitting data with seed 0

Class sizes

Label 0: 46.33%, 1: 53.67%

Total size = 1,157 | train size = 925 | val size = 116 | test size = 116

Building model 0

MoleculeModel(
  (sigmoid): Sigmoid()
  (encoder): MPN(
    (encoder): ModuleList(
      (0): MPNEncoder(
        (dropout_layer): Dropout(p=0.1, inplace=False)
        (act_func): ReLU()
        (W_i): Linear(in_features=147, out_features=600, bias=False)
        (W_h): Linear(in_features=600, out_features=600, bias=False)
        (W_o): Linear(in_features=733, out_features=600, bias=True)
      )
    )
  )
  (ffn): Sequential(
    (0): Dropout(p=0.1, inplace=False)
    (1): Linear(in_features=600, out_features=600, bias=True)
    (2): ReLU()
    (3): Dropout(p=0.1, inplace=False)
    (4): Linear(in_features=600, out_features=1, bias=True)
  )
)

Number of parameters = 1,250,401

Moving model to cuda

  0%|          | 0/100 [00:00<?, ?it/s]
[A
Epoch 0

  0%|          | 0/19 [00:00<?, ?it/s]
[A[A
 21%|##1       | 4/19 [00:00<00:00, 33.20it/s]
[A[A
 42%|####2     | 8/19 [00:00<00:00, 33.47it/s]
[A[A
Loss = 7.0538e-01, PNorm = 45.8233, GNorm = 0.5456, lr_0 = 3.7500e-04

 63%|######3   | 12/19 [00:00<00:00, 33.54it/s]
…
  0%|          | 0/1157 [00:00<?, ?it/s]
[A
100%|##########| 1157/1157 [00:00<00:00, 345986.72it/s]
  0%|          | 0/1157 [00:00<?, ?it/s]
[A
100%|##########| 1157/1157 [00:00<00:00, 133785.73it/s]
Number of tasks = 1

Fold 0

Splitting data with seed 0

Class sizes

Label 0: 46.33%, 1: 53.67%

Total size = 1,157 | train size = 925 | val size = 116 | test size = 116

Building model 0

MoleculeModel(
  (sigmoid): Sigmoid()
  (encoder): MPN(
    (encoder): ModuleList(
      (0): MPNEncoder(
        (dropout_layer): Dropout(p=0.35000000000000003, inplace=False)
        (act_func): ReLU()
        (W_i): Linear(in_features=147, out_features=1800, bias=False)
        (W_h): Linear(in_features=1800, out_features=1800, bias=False)
        (W_o): Linear(in_features=1933, out_features=1800, bias=True)
      )
    )
  )
  (ffn): Sequential(
    (0): Dropout(p=0.35000000000000003, inplace=False)
    (1): Linear(in_features=1800, out_features=1800, bias=True)
    (2): ReLU()
    (3): Dropout(p=0.35000000000000003, inplace=False)
    (4): Linear(in_features=1800, out_features=1800, bias=True)
    (5): ReLU()
    (6): Dropout(p=0.35000000000000003, inplace=False)
    (7): Linear(in_features=1800, out_features=1, bias=True)
  )
)

Number of parameters = 13,473,001

Moving model to cuda

  0%|          | 0/100 [00:00<?, ?it/s]
[A
Epoch 0

  0%|          | 0/19 [00:00<?, ?it/s]
[A[A
 16%|#5        | 3/19 [00:00<00:00, 28.91it/s]
[A[A
 32%|###1      | 6/19 [00:00<00:00, 28.65it/s]
[A[A
 47%|####7     | 9/19 [00:00<00:00, 28.55it/s]
[A[A
Loss = 7.2527e-01, PNorm = 86.8610, GNorm = 1.1247, lr_0 = 3.7500e-04
…
1157it [00:00, 247377.77it/s]
  0%|          | 0/1157 [00:00<?, ?it/s]
[A
100%|##########| 1157/1157 [00:00<00:00, 360482.08it/s]
  0%|          | 0/1157 [00:00<?, ?it/s]
[A
100%|##########| 1157/1157 [00:00<00:00, 133114.16it/s]
Number of tasks = 1

Fold 0

Splitting data with seed 0

Class sizes

Label 0: 46.33%, 1: 53.67%

Total size = 1,157 | train size = 925 | val size = 116 | test size = 116

Building model 0

MoleculeModel(
  (sigmoid): Sigmoid()
  (encoder): MPN(
    (encoder): ModuleList(
      (0): MPNEncoder(
        (dropout_layer): Dropout(p=0.4, inplace=False)
        (act_func): ReLU()
        (W_i): Linear(in_features=147, out_features=1200, bias=False)
        (W_h): Linear(in_features=1200, out_features=1200, bias=False)
        (W_o): Linear(in_features=1333, out_features=1200, bias=True)
      )
    )
  )
  (ffn): Sequential(
    (0): Dropout(p=0.4, inplace=False)
    (1): Linear(in_features=1200, out_features=1200, bias=True)
    (2): ReLU()
    (3): Dropout(p=0.4, inplace=False)
    (4): Linear(in_features=1200, out_features=1, bias=True)
  )
)

Number of parameters = 4,660,801

Moving model to cuda

  0%|          | 0/100 [00:00<?, ?it/s]
[A
Epoch 0

  0%|          | 0/19 [00:00<?, ?it/s]
[A[A
 21%|##1       | 4/19 [00:00<00:00, 35.95it/s]
[A[A
 42%|####2     | 8/19 [00:00<00:00, 36.42it/s]
[A[A
Loss = 7.0470e-01, PNorm = 62.6857, GNorm = 0.8759, lr_0 = 3.7500e-04

 63%|######3   | 12/19 [00:00<00:00, 36.51it/s]
…
1157it [00:00, 114434.17it/s]
  0%|          | 0/1157 [00:00<?, ?it/s]
[A
100%|##########| 1157/1157 [00:00<00:00, 206934.02it/s]
  0%|          | 0/1157 [00:00<?, ?it/s]
[A
100%|##########| 1157/1157 [00:00<00:00, 87937.12it/s]
Number of tasks = 1

Fold 0

Splitting data with seed 0

Class sizes

Label 0: 46.33%, 1: 53.67%

Total size = 1,157 | train size = 925 | val size = 116 | test size = 116

Building model 0

MoleculeModel(
  (sigmoid): Sigmoid()
  (encoder): MPN(
    (encoder): ModuleList(
      (0): MPNEncoder(
        (dropout_layer): Dropout(p=0.25, inplace=False)
        (act_func): ReLU()
        (W_i): Linear(in_features=147, out_features=2200, bias=False)
        (W_h): Linear(in_features=2200, out_features=2200, bias=False)
        (W_o): Linear(in_features=2333, out_features=2200, bias=True)
      )
    )
  )
  (ffn): Sequential(
    (0): Dropout(p=0.25, inplace=False)
    (1): Linear(in_features=2200, out_features=2200, bias=True)
    (2): ReLU()
    (3): Dropout(p=0.25, inplace=False)
    (4): Linear(in_features=2200, out_features=1, bias=True)
  )
)

Number of parameters = 15,144,801

Moving model to cuda

  0%|          | 0/100 [00:00<?, ?it/s]
[A
Epoch 0

  0%|          | 0/19 [00:00<?, ?it/s]
[A[A
 16%|#5        | 3/19 [00:00<00:00, 26.38it/s]
[A[A
 32%|###1      | 6/19 [00:00<00:00, 26.33it/s]
[A[A
 47%|####7     | 9/19 [00:00<00:00, 26.13it/s]
[A[A
Loss = 7.5799e-01, PNorm = 83.3239, GNorm = 0.7081, lr_0 = 3.7500e-04
…
1157it [00:00, 116738.27it/s]
  0%|          | 0/1157 [00:00<?, ?it/s]
[A
100%|##########| 1157/1157 [00:00<00:00, 211193.74it/s]
  0%|          | 0/1157 [00:00<?, ?it/s]
[A
100%|##########| 1157/1157 [00:00<00:00, 88329.26it/s]
Number of tasks = 1

Fold 0

Splitting data with seed 0

Class sizes

Label 0: 46.33%, 1: 53.67%

Total size = 1,157 | train size = 925 | val size = 116 | test size = 116

Building model 0

MoleculeModel(
  (sigmoid): Sigmoid()
  (encoder): MPN(
    (encoder): ModuleList(
      (0): MPNEncoder(
        (dropout_layer): Dropout(p=0.2, inplace=False)
        (act_func): ReLU()
        (W_i): Linear(in_features=147, out_features=1500, bias=False)
        (W_h): Linear(in_features=1500, out_features=1500, bias=False)
        (W_o): Linear(in_features=1633, out_features=1500, bias=True)
      )
    )
  )
  (ffn): Sequential(
    (0): Dropout(p=0.2, inplace=False)
    (1): Linear(in_features=1500, out_features=1500, bias=True)
    (2): ReLU()
    (3): Dropout(p=0.2, inplace=False)
    (4): Linear(in_features=1500, out_features=1500, bias=True)
    (5): ReLU()
    (6): Dropout(p=0.2, inplace=False)
    (7): Linear(in_features=1500, out_features=1, bias=True)
  )
)

Number of parameters = 9,427,501

Moving model to cuda

  0%|          | 0/100 [00:00<?, ?it/s]
[A
Epoch 0

  0%|          | 0/19 [00:00<?, ?it/s]
[A[A
 16%|#5        | 3/19 [00:00<00:00, 27.54it/s]
[A[A
 32%|###1      | 6/19 [00:00<00:00, 27.13it/s]
[A[A
 47%|####7     | 9/19 [00:00<00:00, 27.00it/s]
[A[A
Loss = 7.3988e-01, PNorm = 79.5833, GNorm = 0.4543, lr_0 = 3.7500e-04
…
  0%|          | 0/1157 [00:00<?, ?it/s]
[A
100%|##########| 1157/1157 [00:00<00:00, 182904.03it/s]
  0%|          | 0/1157 [00:00<?, ?it/s]
[A
100%|##########| 1157/1157 [00:00<00:00, 84210.70it/s]
Number of tasks = 1

Fold 0

Splitting data with seed 0

Class sizes

Label 0: 46.33%, 1: 53.67%

Total size = 1,157 | train size = 925 | val size = 116 | test size = 116

Building model 0

MoleculeModel(
  (sigmoid): Sigmoid()
  (encoder): MPN(
    (encoder): ModuleList(
      (0): MPNEncoder(
        (dropout_layer): Dropout(p=0.35000000000000003, inplace=False)
        (act_func): ReLU()
        (W_i): Linear(in_features=147, out_features=500, bias=False)
        (W_h): Linear(in_features=500, out_features=500, bias=False)
        (W_o): Linear(in_features=633, out_features=500, bias=True)
      )
    )
  )
  (ffn): Sequential(
    (0): Dropout(p=0.35000000000000003, inplace=False)
    (1): Linear(in_features=500, out_features=500, bias=True)
    (2): ReLU()
    (3): Dropout(p=0.35000000000000003, inplace=False)
    (4): Linear(in_features=500, out_features=1, bias=True)
  )
)

Number of parameters = 892,001

Moving model to cuda

  0%|          | 0/100 [00:00<?, ?it/s]
[A
Epoch 0

  0%|          | 0/19 [00:00<?, ?it/s]
[A[A
 16%|#5        | 3/19 [00:00<00:00, 29.25it/s]
[A[A
 37%|###6      | 7/19 [00:00<00:00, 29.99it/s]
[A[A
Loss = 7.4538e-01, PNorm = 42.2730, GNorm = 1.2100, lr_0 = 3.7500e-04

 53%|#####2    | 10/19 [00:00<00:00, 18.10it/s]
…
  0%|          | 0/1157 [00:00<?, ?it/s]
[A
100%|##########| 1157/1157 [00:00<00:00, 173643.32it/s]
  0%|          | 0/1157 [00:00<?, ?it/s]
[A
100%|##########| 1157/1157 [00:00<00:00, 79197.22it/s]
Number of tasks = 1

Fold 0

Splitting data with seed 0

Class sizes

Label 0: 46.33%, 1: 53.67%

Total size = 1,157 | train size = 925 | val size = 116 | test size = 116

Building model 0

MoleculeModel(
  (sigmoid): Sigmoid()
  (encoder): MPN(
    (encoder): ModuleList(
      (0): MPNEncoder(
        (dropout_layer): Dropout(p=0.35000000000000003, inplace=False)
        (act_func): ReLU()
        (W_i): Linear(in_features=147, out_features=300, bias=False)
        (W_h): Linear(in_features=300, out_features=300, bias=False)
        (W_o): Linear(in_features=433, out_features=300, bias=True)
      )
    )
  )
  (ffn): Sequential(
    (0): Dropout(p=0.35000000000000003, inplace=False)
    (1): Linear(in_features=300, out_features=300, bias=True)
    (2): ReLU()
    (3): Dropout(p=0.35000000000000003, inplace=False)
    (4): Linear(in_features=300, out_features=1, bias=True)
  )
)

Number of parameters = 355,201

Moving model to cuda

  0%|          | 0/100 [00:00<?, ?it/s]
[A
Epoch 0

  0%|          | 0/19 [00:00<?, ?it/s]
[A[A
 16%|#5        | 3/19 [00:00<00:00, 29.12it/s]
[A[A
 37%|###6      | 7/19 [00:00<00:00, 30.33it/s]
[A[A
Loss = 7.1129e-01, PNorm = 34.0109, GNorm = 0.8440, lr_0 = 3.7500e-04

 58%|#####7    | 11/19 [00:00<00:00, 30.38it/s]
…
